tests/pkg_tensorflow-lite/external_modules/mnist/model.tflite (tflite, 52920 bytes, 2 tensors)

sequential/dense/MatMul/ReadVariableOp/transpose i1 [64, 784] scale=0.015609756 zero_point=0
000000 03 03 fb fe fe fd 00 fb fc 02 fc 01 01 03 07 04
       0.04682927 0.04682927 -0.07804878 -0.031219512 -0.031219512 -0.04682927 0.0 -0.07804878 -0.062439024 0.031219512 -0.062439024 0.015609756 0.015609756 0.04682927 0.10926829 0.062439024
000010 fe fb 03 01 05 05 00 ff 05 01 ff fc 03 02 fc 00
       -0.031219512 -0.07804878 0.04682927 0.015609756 0.07804878 0.07804878 0.0 -0.015609756 0.07804878 0.015609756 -0.015609756 -0.062439024 0.04682927 0.031219512 -0.062439024 0.0
000020 fb fe 05 02 00 03 02 fc fb ff f5 ff 19 16 fc fd
       -0.07804878 -0.031219512 0.07804878 0.031219512 0.0 0.04682927 0.031219512 -0.062439024 -0.07804878 -0.015609756 -0.17170732 -0.015609756 0.3902439 0.34341463 -0.062439024 -0.04682927
000030 fd fb 02 01 fd fc 04 04 01 fb fb 05 fe fc fd 07
       -0.04682927 -0.07804878 0.031219512 0.015609756 -0.04682927 -0.062439024 0.062439024 0.062439024 0.015609756 -0.07804878 -0.07804878 0.07804878 -0.031219512 -0.062439024 -0.04682927 0.10926829
000040 18 0d 18 19 0e 1f 0e ef f2 f7 ee e6 e9 08 f8 14
       0.37463415 0.20292683 0.37463415 0.3902439 0.21853659 0.48390245 0.21853659 -0.26536584 -0.21853659 -0.1404878 -0.2809756 -0.40585366 -0.3590244 0.12487805 -0.12487805 0.31219512
000050 0e 01 05 02 ff 00 01 08 fe 0c 16 0d fc 13 1d 14
       0.21853659 0.015609756 0.07804878 0.031219512 -0.015609756 0.0 0.015609756 0.12487805 -0.031219512 0.18731707 0.34341463 0.20292683 -0.062439024 0.29658538 0.4526829 0.31219512
000060 03 fa 08 e9 03 19 1b f8 fd f4 ef e4 0c fd 01 01
       0.04682927 -0.09365854 0.12487805 -0.3590244 0.04682927 0.3902439 0.42146343 -0.12487805 -0.04682927 -0.18731707 -0.26536584 -0.43707317 0.18731707 -0.04682927 0.015609756 0.015609756
000070 03 01 21 0f 14 0d 1b 26 1b 2a 31 3b 27 1f 15 17
       0.04682927 0.015609756 0.51512194 0.23414634 0.31219512 0.20292683 0.42146343 0.59317076 0.42146343 0.6556097 0.76487803 0.9209756 0.6087805 0.48390245 0.32780486 0.3590244
000080 10 03 09 fd 09 ed e9 da dd e5 09 fe 02 03 10 08
       0.2497561 0.04682927 0.1404878 -0.04682927 0.1404878 -0.29658538 -0.3590244 -0.59317076 -0.5463415 -0.42146343 0.1404878 -0.031219512 0.031219512 0.04682927 0.2497561 0.12487805
000090 f8 05 1d 23 0b 0f 1f 19 1c 29 1f 16 03 fa 09 0e
       -0.12487805 0.07804878 0.4526829 0.5463415 0.17170732 0.23414634 0.48390245 0.3902439 0.43707317 0.64 0.48390245 0.34341463 0.04682927 -0.09365854 0.1404878 0.21853659
0000a0 0e 03 ec d8 e5 20 18 06 00 13 e6 e8 f5 0f 0d e4
       0.21853659 0.04682927 -0.31219512 -0.62439024 -0.42146343 0.4995122 0.37463415 0.09365854 0.0 0.29658538 -0.40585366 -0.37463415 -0.17170732 0.23414634 0.20292683 -0.43707317
0000b0 fa f4 f4 fc 06 0c 14 2a 1b 15 15 01 fd 0b f4 01
       -0.09365854 -0.18731707 -0.18731707 -0.062439024 0.09365854 0.18731707 0.31219512 0.6556097 0.42146343 0.32780486 0.32780486 0.015609756 -0.04682927 0.17170732 -0.18731707 0.015609756
0000c0 e2 0d 23 f4 fb 1b e9 e1 0b fe 03 e7 f7 e9 f1 ec
       -0.46829268 0.20292683 0.5463415 -0.18731707 -0.07804878 0.42146343 -0.3590244 -0.48390245 0.17170732 -0.031219512 0.04682927 -0.3902439 -0.1404878 -0.3590244 -0.23414634 -0.31219512
0000d0 02 0b 0b 22 1c 15 16 05 f7 0f fd fc f1 03 08 03
       0.031219512 0.17170732 0.17170732 0.5307317 0.43707317 0.32780486 0.34341463 0.07804878 -0.1404878 0.23414634 -0.04682927 -0.062439024 -0.23414634 0.04682927 0.12487805 0.04682927
0000e0 fb 02 e1 03 05 09 07 ee fc f3 fa fd fb f0 ee f8
       -0.07804878 0.031219512 -0.48390245 0.04682927 0.07804878 0.1404878 0.10926829 -0.2809756 -0.062439024 -0.20292683 -0.09365854 -0.04682927 -0.07804878 -0.2497561 -0.2809756 -0.12487805
0000f0 18 0d 14 13 00 0c 0e fb 01 1c 17 18 fd ee fd 0a
       0.37463415 0.20292683 0.31219512 0.29658538 0.0 0.18731707 0.21853659 -0.07804878 0.015609756 0.43707317 0.3590244 0.37463415 -0.04682927 -0.2809756 -0.04682927 0.15609756

sequential/dense_1/MatMul/ReadVariableOp/transpose i1 [10, 64] scale=0.017796783 zero_point=0
000000 0b e1 fb 0c ea 11 b6 89 0c 15 c1 12 0f 06 08 e1
       0.19576462 -0.5517003 -0.088983916 0.21356139 -0.39152923 0.3025453 -1.3169619 -2.1178172 0.21356139 0.37373245 -1.1211973 0.3203421 0.26695174 0.10678069 0.14237426 -0.5517003
000010 1a ca ef 18 17 13 d7 b4 c8 ee fc 0d aa b2 0c bf
       0.46271634 -0.96102625 -0.3025453 0.42712277 0.40932602 0.33813888 -0.7296681 -1.3525555 -0.9966198 -0.3203421 -0.07118713 0.23135817 -1.5305233 -1.388149 0.21356139 -1.1567909
000020 bb ee 1c 17 a2 15 f4 cc c4 a4 fd 16 cb d4 cf b0
       -1.227978 -0.3203421 0.4983099 0.40932602 -1.6728976 0.37373245 -0.21356139 -0.9254327 -1.067807 -1.6373041 -0.053390346 0.39152923 -0.9432295 -0.78305846 -0.87204236 -1.4237427
000030 a3 0c e0 ea 1e d7 06 12 c7 13 0b f7 26 10 f9 10
       -1.6551008 0.21356139 -0.56949705 -0.39152923 0.5339035 -0.7296681 0.10678069 0.3203421 -1.0144166 0.33813888 0.19576462 -0.16017105 0.67627776 0.28474852 -0.12457748 0.28474852
000040 fd 16 01 b1 13 ef 11 e4 a1 10 13 fe 18 b4 89 19
       -0.053390346 0.39152923 0.017796783 -1.4059459 0.33813888 -0.3025453 0.3025453 -0.4983099 -1.6906943 0.28474852 0.33813888 -0.035593566 0.42712277 -1.3525555 -2.1178172 0.44491956
000050 c1 0d aa b3 de f9 d7 1f c7 b9 2f 08 e6 0f f8 f1
       -1.1211973 0.23135817 -1.5305233 -1.3703523 -0.6050906 -0.12457748 -0.7296681 0.5517003 -1.0144166 -1.2635716 0.8364488 0.14237426 -0.46271634 0.26695174 -0.14237426 -0.26695174
000060 12 0f da ed 02 0c 22 13 0c de 95 07 1d e1 ec 0b
       0.3203421 0.26695174 -0.67627776 -0.33813888 0.035593566 0.21356139 0.6050906 0.33813888 0.21356139 -0.6050906 -1.9042557 0.12457748 0.5161067 -0.5517003 -0.35593566 0.19576462
000070 05 d1 f2 cd 34 a1 0c 24 19 ce ca 32 19 d2 12 0b
       0.088983916 -0.8364488 -0.24915496 -0.9076359 0.9254327 -1.6906943 0.21356139 0.6406842 0.44491956 -0.8898391 -0.96102625 0.8898391 0.44491956 -0.81865203 0.3203421 0.19576462
000080 10 16 0c 04 15 09 ef b4 0f fa 0d 06 0b d5 dc 07
       0.28474852 0.39152923 0.21356139 0.07118713 0.37373245 0.16017105 -0.3025453 -1.3525555 0.26695174 -0.10678069 0.23135817 0.10678069 0.19576462 -0.76526165 -0.6406842 0.12457748
000090 fe 91 02 1b b7 0b bb 1d 97 25 ee 97 fc 18 14 07
       -0.035593566 -1.9754429 0.035593566 0.48051313 -1.2991651 0.19576462 -1.227978 0.5161067 -1.8686622 0.65848094 -0.3203421 -1.8686622 -0.07118713 0.42712277 0.35593566 0.12457748
0000a0 19 13 e1 10 0d 06 06 12 f7 ea e5 15 f4 0e ed e6
       0.44491956 0.33813888 -0.5517003 0.28474852 0.23135817 0.10678069 0.10678069 0.3203421 -0.16017105 -0.39152923 -0.48051313 0.37373245 -0.21356139 0.24915496 -0.33813888 -0.46271634
0000b0 f0 09 20 1b da 00 0c d9 f6 e9 f3 10 16 d1 ce 12
       -0.28474852 0.16017105 0.56949705 0.48051313 -0.67627776 0.0 0.21356139 -0.6940745 -0.17796783 -0.40932602 -0.23135817 0.28474852 0.39152923 -0.8364488 -0.8898391 0.3203421
0000c0 0b 03 05 e9 fb 0e 17 15 dc ce 02 bc e0 d2 03 10
       0.19576462 0.053390346 0.088983916 -0.40932602 -0.088983916 0.24915496 0.40932602 0.37373245 -0.6406842 -0.8898391 0.035593566 -1.2101812 -0.56949705 -0.81865203 0.053390346 0.28474852
0000d0 11 ce 0e f9 04 e3 d4 e7 e0 fe c7 06 f1 12 0b 0f
       0.3025453 -0.8898391 0.24915496 -0.12457748 0.07118713 -0.5161067 -0.78305846 -0.44491956 -0.56949705 -0.035593566 -1.0144166 0.10678069 -0.26695174 0.3203421 0.19576462 0.26695174
0000e0 16 05 d1 06 0f 0d 15 df 08 17 06 01 d1 06 ff 12
       0.39152923 0.088983916 -0.8364488 0.10678069 0.26695174 0.23135817 0.37373245 -0.5872938 0.14237426 0.40932602 0.10678069 0.017796783 -0.8364488 0.10678069 -0.017796783 0.3203421
0000f0 27 0f 19 e6 d1 0d 19 bc d0 d2 13 cf e8 0f cd 03
       0.6940745 0.26695174 0.44491956 -0.46271634 -0.8364488 0.23135817 0.44491956 -1.2101812 -0.85424554 -0.81865203 0.33813888 -0.87204236 -0.42712277 0.26695174 -0.9076359 0.053390346
